…
 1127.42 examples/s]Map:  99%|█████████▉| 7753/7846 [00:06<00:00, 1279.33 examples/s]Map: 100%|██████████| 7846/7846 [00:07<00:00, 1106.00 examples/s]
Using the `WANDB_DISABLED` environment variable is deprecated and will be removed in v5. Use the --report_to flag to control the integrations used for logging result (for instance --report_to none).
Detected kernel version 5.4.0, which is below the recommended minimum of 5.5.0; this can cause the process to hang. It is recommended to upgrade the kernel to the minimum version or higher.
Model Size:  8126208
T5ForConditionalGeneration(
  (shared): Embedding(1000, 256)
  (encoder): T5Stack(
    (embed_tokens): Embedding(1000, 256)
    (block): ModuleList(
      (0): T5Block(
        (layer): ModuleList(
          (0): T5LayerSelfAttention(
            (SelfAttention): T5Attention(
              (q): Linear(in_features=256, out_features=128, bias=False)
              (k): Linear(in_features=256, out_features=128, bias=False)
              (v): Linear(in_features=256, out_features=128, bias=False)
              (o): Linear(in_features=128, out_features=256, bias=False)
              (relative_attention_bias): Embedding(32, 4)
            )
            (layer_norm): T5LayerNorm()
            (dropout): Dropout(p=0.1, inplace=False)
          )
          (1): T5LayerFF(
            (DenseReluDense): T5DenseGatedActDense(
              (wi_0): Linear(in_features=256, out_features=1024, bias=False)
              (wi_1): Linear(in_features=256, out_features=1024, bias=False)
              (wo): Linear(in_features=1024, out_features=256, bias=False)
              (dropout): Dropout(p=0.1, inplace=False)
              (act): NewGELUActivation()
            )
            (layer_norm): T5LayerNorm()
            (dropout): Dropout(p=0.1, inplace=False)
          )
        )
      )
      (1-3): 3 x T5Block(
        (layer): ModuleList(
          (0): T5LayerSelfAttention(
            (SelfAttention): T5Attention(
              (q): Linear(in_features=256, out_features=128, bias=False)
              (k): Linear(in_features=256, out_features=128, bias=False)
              (v): Linear(in_features=256, out_features=128, bias=False)
              (o): Linear(in_features=128, out_features=256, bias=False)
            )
            (layer_norm): T5LayerNorm()
            (dropout): Dropout(p=0.1, inplace=False)
          )
          (1): T5LayerFF(
            (DenseReluDense): T5DenseGatedActDense(
              (wi_0): Linear(in_features=256, out_features=1024, bias=False)
              (wi_1): Linear(in_features=256, out_features=1024, bias=False)
              (wo): Linear(in_features=1024, out_features=256, bias=False)
              (dropout): Dropout(p=0.1, inplace=False)
              (act): NewGELUActivation()
            )
            (layer_norm): T5LayerNorm()
            (dropout): Dropout(p=0.1, inplace=False)
          )
        )
      )
    )
    (final_layer_norm): T5LayerNorm()
    (dropout): Dropout(p=0.1, inplace=False)
  )
  (decoder): T5Stack(
    (embed_tokens): Embedding(1000, 256)
    (block): ModuleList(
      (0): T5Block(
        (layer): ModuleList(
          (0): T5LayerSelfAttention(
            (SelfAttention): T5Attention(
              (q): Linear(in_features=256, out_features=128, bias=False)
              (k): Linear(in_features=256, out_features=128, bias=False)
              (v): Linear(in_features=256, out_features=128, bias=False)
              (o): Linear(in_features=128, out_features=256, bias=False)
              (relative_attention_bias): Embedding(32, 4)
            )
            (layer_norm): T5LayerNorm()
            (dropout): Dropout(p=0.1, inplace=False)
          )
          (1): T5LayerCrossAttention(
            (EncDecAttention): T5Attention(
              (q): Linear(in_features=256, out_features=128, bias=False)
              (k): Linear(in_features=256, out_features=128, bias=False)
              (v): Linear(in_features=256, out_features=128, bias=False)
              (o): Linear(in_features=128, out_features=256, bias=False)
            )
            (layer_norm): T5LayerNorm()
            (dropout): Dropout(p=0.1, inplace=False)
          )
          (2): T5LayerFF(
            (DenseReluDense): T5DenseGatedActDense(
              (wi_0): Linear(in_features=256, out_features=1024, bias=False)
              (wi_1): Linear(in_features=256, out_features=1024, bias=False)
              (wo): Linear(in_features=1024, out_features=256, bias=False)
              (dropout): Dropout(p=0.1, inplace=False)
              (act): NewGELUActivation()
            )
            (layer_norm): T5LayerNorm()
            (dropout): Dropout(p=0.1, inplace=False)
          )
        )
      )
      (1-3): 3 x T5Block(
        (layer): ModuleList(
          (0): T5LayerSelfAttention(
            (SelfAttention): T5Attention(
              (q): Linear(in_features=256, out_features=128, bias=False)
              (k): Linear(in_features=256, out_features=128, bias=False)
              (v): Linear(in_features=256, out_features=128, bias=False)
              (o): Linear(in_features=128, out_features=256, bias=False)
            )
            (layer_norm): T5LayerNorm()
            (dropout): Dropout(p=0.1, inplace=False)
          )
          (1): T5LayerCrossAttention(
            (EncDecAttention): T5Attention(
              (q): Linear(in_features=256, out_features=128, bias=False)
              (k): Linear(in_features=256, out_features=128, bias=False)
              (v): Linear(in_features=256, out_features=128, bias=False)
              (o): Linear(in_features=128, out_features=256, bias=False)
            )
            (layer_norm): T5LayerNorm()
            (dropout): Dropout(p=0.1, inplace=False)
          )
          (2): T5LayerFF(
            (DenseReluDense): T5DenseGatedActDense(
              (wi_0): Linear(in_features=256, out_features=1024, bias=False)
              (wi_1): Linear(in_features=256, out_features=1024, bias=False)
              (wo): Linear(in_features=1024, out_features=256, bias=False)
              (dropout): Dropout(p=0.1, inplace=False)
              (act): NewGELUActivation()
            )
            (layer_norm): T5LayerNorm()
            (dropout): Dropout(p=0.1, inplace=False)
          )
        )
      )
    )
    (final_layer_norm): T5LayerNorm()
    (dropout): Dropout(p=0.1, inplace=False)
  )
  (lm_head): Linear(in_features=256, out_features=1000, bias=False)
)
Config saved to  /data6/helya/RLLM/results/train/t5/run38_20241105-122224
train
TrainerControl(should_training_stop=False, should_epoch_stop=False, should_save=False, should_evaluate=False, should_log=False)
  0%|          | 0/1000000 [00:00<?, ?it/s]Traceback (most recent call last):
  File "/data6/helya/RLLM/main.py", line 167, in <module>
    main(args ,wandb)
…
